model/model_mymodel1.pth (torch_old, 126497 bytes, 8 tensors)

conv1.weight f4 [10, 3, 5, 5]
0.0076318164 0.06122667 0.04169277 0.018788997 0.03994034 -0.08946094 -0.077150136 -0.107604094
-0.0625543 -0.10280309 -0.04714766 0.111845516 0.01697433 0.08280322 -0.08538351 -0.109050296
0.020200409 -0.0970488 0.045752835 0.09632319 0.04808177 -0.100780554 -0.047096435 -0.086501054
-0.01095414 -0.027280679 0.04732304 -0.104605556 -0.11091591 0.031283457 0.04255778 -0.00045163734
0.082529694 0.06866707 -0.045623638 -0.07251103 -0.095678315 -0.026924005 -0.06890539 0.066128224
0.0038978476 0.105203114 -0.058874927 -0.013627027 0.097711615 -0.07744395 -0.030291809 -0.10958753
-0.08821845 -0.044152945 0.046794 -0.060422342 -0.086604856 -0.05709775 0.049758036 0.0790038
0.059471384 -0.04545392 0.110265434 0.11347024 -0.10549231 0.060894705 -0.013226755 0.010928554
0.09646517 -0.007220596 0.06255749 -0.07142127 0.112325005 0.0840476 0.10818293 0.05139557
-0.007774492 -0.043122858 0.109245226 0.06091623 0.066396534 0.0676405 -0.075626135 0.010379886
-0.08107857 -0.11365342 0.11269637 -0.048501562 -0.014421924 -0.067391574 0.049859803 -0.07615226
0.06594401 -0.0008314673 0.09761568 0.08461645 -0.09802727 0.10572774 -0.07902756 -0.04346403
0.017988786 -0.078254625 -0.09033457 -0.11570129 -0.10243925 -0.043228198 0.009728814 0.028187668
0.08936344 -0.028596187 0.052762702 0.09636752 0.06896238 -0.028058778 -0.042150926 0.036314536
-0.020411031 -0.092448525 0.034547985 0.10859731 -0.012644616 -0.05262391 0.030034112 0.049072023
0.10950636 -0.022932691 -0.094328806 -0.0037276903 -0.011361222 0.047197293 -0.103184514 -0.09965866
-0.03471144 0.0827291 0.00951943 0.076477356 -0.091155164 -0.010105556 -0.03172843 -0.09775709
0.09586005 0.007622135 0.05251921 0.04454505 0.05616691 0.057459265 0.025870468 0.06421212
0.030820068 0.058381703 0.106979884 -0.06239196 0.051497363 0.10247445 0.092707805 0.049307365
-0.036363926 0.08421889 0.10797564 0.1009185 0.11026554 -0.015789405 0.02340603 0.04770825
0.048919145 0.077248916 -0.050512325 -0.039586242 -0.054134533 -0.09173781 0.07907651 0.00062714587
-0.0059907525 -0.11465994 0.021329714 0.06595887 -0.10586412 -0.10586761 0.07995731 -0.092881724
-0.081998356 0.015232733 -0.10229451 -0.078022674 -0.0033356685 -0.056585424 0.048974223 0.07323279
0.09503052 0.056939274 0.107409574 0.040373076 0.012154766 0.07374452 -0.063386865 0.008514948
-0.09296936 -0.07862138 0.10666597 -0.008160441 -0.07691011 -0.0423491 0.10112717 -0.08705853
-0.043080192 0.04020029 0.017143894 -0.060116075 -0.039974876 0.105576605 0.018924914 0.03645439
0.04892232 0.101275034 -0.07259371 0.0497022 -0.0757296 -0.013210885 -0.007580752 0.016961558
0.11439416 -0.059465226 0.10663597 0.10012278 0.007787891 -0.012689381 -0.026736949 0.051465344
0.010845495 -0.022086449 -0.09393314 0.09729498 0.0954031 0.10890659 -0.06943611 0.11049444
0.07958487 -0.0761269 -0.07320157 -0.020123806 0.0006813277 -0.069290146 -0.095420085 0.054321602
0.0027791648 -0.056680255 0.07292697 0.02502613 -0.07042441 0.046656296 0.08766045 -0.09069146
0.059139352 -0.020385029 0.06443257 0.018628279 0.055483725 -0.09366212 0.083552256 0.09187245
00000000: 5114 fa3b d1c8 7a3d 0ac6 2a3d 62eb 993c
00000010: 7b98 233d 4c37 b7bd e400 9ebd 895f dcbd
00000020: 781c 80bd 6d8a d2bd e81d 41bd 430f e53d
00000030: c00d 8b3c bc94 a93d 8ddd aebd c355 dfbd
00000040: 547b a53c 85c1 c6bd 5367 3b3d 1845 c53d
00000050: 64f1 443d 0966 cebd 31e8 40bd 7727 b1bd
00000060: fe78 33bc bb7b dfbc ced5 413d 703b d6bd
00000070: e127 e3bd 1523 003d 1151 2e3d bdc9 ecb9
00000080: 5405 a93d 52a1 8c3d dadf 3abd aa80 94bd
00000090: fef2 c3bd bb8f dcbc 451e 8dbd 3c6e 873d
000000a0: 0873 7f3b bb74 d73d d626 71bd e543 5fbc
000000b0: 071d c83d ef9a 9ebd 8726 f8bc 6d6f e0bd
000000c0: e0ab b4bd b8d9 34bd 11ab 3f3d 6b7d 77bd
000000d0: e35d b1bd 55df 69bd 15cf 4b3d bfcc a13d
000000e0: 4498 733d e42d 3abd d8d2 e13d 1663 e83d
000000f0: 5a0c d8bd ba6c 793d 08b5 58bc ae0d 333c
00000100: 888f c53d c09a ecbb 241e 803d 5145 92bd
00000110: a70a e63d 2621 ac3d 038f dd3d 2984 523d
00000120: 2ac1 febb 98a1 30bd f6bb df3d 4c83 793d
00000130: e8fa 873d 1a87 8a3d e0e1 9abd 6610 2a3c
00000140: 850c a6bd 20c3 e8bd 5bcd e63d 93a9 46bd
00000150: ef49 6cbc 9804 8abd cb39 4c3d b7f5 9bbd
00000160: a70d 873d d3f6 59ba bbea c73d 644b ad3d
00000170: 85c2 c8bd c987 d83d 34d9 a1bd 5707 32bd
00000180: 385d 933c f643 a0bd 5501 b9bd ccf4 ecbd
00000190: abcb d1bd 0d10 31bd 9a65 1f3c d3e9 e63c
000001a0: 2e04 b73d 8d42 eabc b41d 583d 565c c53d
000001b0: 263c 8d3d 86db e5bc 73a6 2cbd 8dbe 143d
000001c0: 0935 a7bc a755 bdbd 3082 0d3d 4468 de3d
000001d0: 5d2b 4fbc 2b8c 57bd 190a f63c bfff 483d
000001e0: df44 e03d 57dd bbbc 762f c1bd 444c 74bb
000001f0: 6b24 3abc f351 413d 6752 d3bd d719 ccbd
00000200: 952d 0ebd e06d a93d 62f7 1b3c 29a0 9c3d
00000210: 8faf babd c691 25bc acf5 01bd df34 c8bd
00000220: 4652 c43d 1ac3 f93b 621e 573d df74 363d
00000230: 460f 663d 685a 6b3d 4eee d33c a581 833d
00000240: 5e7a fc3c a721 6f3d 4518 db3d b68e 7fbd
00000250: e6ee 523d 20de d13d 97dd bd3d 85f6 493d
00000260: 57f2 14bd f47a ac3d 5522 dd3d 5cae ce3d
00000270: e6d2 e13d c858 81bc 01be bf3c ba69 433d
00000280: 715f 483d ae34 9e3d 03e6 4ebd 2f25 22bd
00000290: 2cbc 5dbd 08e1 bbbd def2 a13d 0c67 243a
000002a0: 134e c4bb d5d2 eabd a7bb ae3c 7215 873d
000002b0: 4acf d8bd 1ed1 d8bd a8c0 a33d c638 bebd
000002c0: c1ee a7bd b792 793c c97f d1bd 5aca 9fbd
000002d0: 3b9b 5abb 1ec6 67bd 3299 483d 13fb 953d
000002e0: 5c9f c23d 2839 693d 8df9 db3d 3d5e 253d
000002f0: c924 473c 5e07 973d f9d0 81bd 4882 0b3c
00000300: b866 bebd 3f04 a1bd b073 da3d 5fb3 05bc
00000310: 0c83 9dbd 4076 2dbd c31b cf3d be4b b2bd
00000320: db74 30bd 0fa9 243d 5a71 8c3c 463c 76bd
00000330: b2bc 23bd 8c38 d83d 6c08 9b3c 3351 153d
00000340: c562 483d 4969 cf3d 03ac 94bd 8994 4b3d
00000350: 1f18 9bbd 7872 58bc f567 f8bb f7f2 8a3c
00000360: 7c47 ea3d cf91 73bd f663 da3d 2c0d cd3d
00000370: 9131 ff3b 1fe7 4fbc 7207 dbbc 53cd 523d
00000380: 4eb1 313c a4ee b4bc 0560 c0bd 9742 c73d
00000390: b362 c33d 6b0a df3d 8534 8ebd e94a e23d
000003a0: 64fd a23d 6ce8 9bbd b4ea 95bd aeda a4bc
000003b0: 219b 323a fee7 8dbd 9b6b c3bd 5480 5e3d
000003c0: a622 363b 8e29 68bd bc5a 953d 9903 cd3c
000003d0: ac3a 90bd ac1a 3f3d 5287 b33d 72bc b9bd
000003e0: 1b3c 723d 81fe a6bc 39f5 833d 559a 983c
000003f0: e742 633d edd1 bfbd 721d ab3d a027 bc3d

conv1.bias f4 [10]
0.03110557 -0.07227123 0.063380584 0.042708628 0.020781538 0.044676356 0.02349181 0.032515146
0.058369163 -0.04611212
00000000: 1cd1 fe3c f002 94bd aecd 813d 3eef 2e3d
00000010: 0b3e aa3c 8efe 363d e571 c03c 9a2e 053d
00000020: 8114 6f3d 10e0 3cbd

conv2.weight f4 [20, 10, 5, 5]
0.015617855 -0.0014244615 0.036106862 0.016393194 0.049812574 -0.016542088 0.012728017 0.03333826
-0.017772082 -0.0014473844 -0.049234934 0.046412915 -0.058156498 -0.027831983 -0.0015858514 0.018879991
-0.002172267 0.010323216 -0.03854354 -0.040809285 0.009478458 0.022033522 -0.01216331 -0.019234303
0.0026959889 0.061611306 0.026162613 0.050705675 0.037228692 0.023696762 0.008283311 -0.01643557
-0.04045185 -0.029500874 0.03651946 0.015283625 0.008325948 -0.047672886 -0.045637496 -0.025074037
-0.03780888 0.028224457 -0.01351829 0.042250536 -0.05179291 0.05221048 0.021863054 0.0048100376
-0.00661588 0.0017658119 0.028122704 -0.0174012 0.027347151 0.055551186 0.023648107 0.0025492085
-0.008907134 0.031285655 0.035318527 0.032745894 0.037165828 -0.050945524 -0.05795964 -0.009369187
0.045337845 3.329383e-06 -0.017955728 0.040299226 -0.00402341 -0.021563636 0.042080726 0.02890344
-0.039566096 -0.03440325 0.05517951 0.052256085 -0.010023951 0.046750065 0.011705191 0.04170243
-0.015171321 -0.025492053 0.028480338 0.06254719 0.028894661 -0.00101966 -0.015111172 0.015770085
-0.003473774 -0.04317183 -0.00943848 0.030068988 0.017089227 0.0587058 0.03838891 -0.056300465
0.059896637 -0.03338138 -0.055968598 -0.013228527 -0.0350684 -0.058608394 0.00043218368 -0.008631918
0.046312172 0.055199195 -0.026318984 -0.047301 -0.037469253 -0.024553077 0.05285462 -0.040873714
-0.03684296 0.024190638 0.051416058 -0.029842498 -0.036437754 -0.04021398 0.0160718 -0.035062358
-0.06303024 0.053482015 -0.021276655 -0.009057889 0.025029192 0.0125971185 0.006009625 0.028702075
0.05859764 -0.010178518 0.03144941 -0.048047382 0.005378081 -0.0073430324 -0.019011963 0.010052336
-0.035341732 -0.059557952 -0.01159635 -0.02086749 0.019448569 -0.0021762387 -0.007905913 0.053638745
-0.04430305 0.04595633 -0.026070522 -0.02527888 -0.04026414 -0.00364593 -0.040761903 -0.030642908
-0.0358691 -0.035031762 -0.020525198 -0.03147081 0.05610118 -0.006860324 0.011727835 0.04311031
-0.02612247 0.030230759 -0.024135066 -0.054036904 0.05980379 -0.02287319 -0.0542385 0.017177267
0.05294044 0.038918037 0.006053825 -0.006349595 0.01924096 -0.03656431 -0.033933576 -0.057848763
-0.006582652 -0.054501455 -0.03560069 0.055263095 0.020092681 0.010358797 0.009514751 0.017650701
-0.05890704 0.053078823 0.03239084 0.030098286 0.048834193 -0.017814256 0.027082639 0.0024844597
-0.05997086 -0.0021615212 0.0038544494 -0.037453752 -0.046882007 0.038393892 -0.013311894 -0.02574189
0.043945465 -0.06097541 0.01118524 0.052506737 -0.050584894 0.023060989 -0.010726573 0.016845033
-0.03105196 -0.052125532 0.02844463 0.056898672 -0.02763383 0.02416009 0.04591336 -0.05382201
0.014480578 -0.005819564 -0.047188472 -0.016232783 0.057582095 -0.032478068 -0.023058886 -0.030037714
0.00026014604 -0.026693268 -0.04686443 0.037517134 -0.0028504895 0.010784076 -0.0077145654 -0.062006645
0.062261164 -0.028952492 -0.052898142 -0.028757246 0.03771998 0.01939336 0.0154461935 -0.03158164
-0.047030713 0.049626507 0.05552523 0.030244483 0.04305227 -0.032953165 -0.016884793 -0.031908523
0.041516475 -0.059418794 -0.03138441 -0.042839885 0.055144887 -0.04888577 -0.019696154 0.053009845
00000000: 08e2 7f3c ffb4 baba cae4 133d 054b 863c
00000010: 4508 4c3d 4683 87bc 2c89 503c b38d 083d
00000020: c296 91bc 29b6 bdba 92aa 49bd 781b 3e3d
00000030: 8235 6ebd e6ff e3bc 58dc cfba 36aa 9a3c
00000040: 985c 0ebb b522 293c d5df 1dbd a327 27bd
00000050: 894b 1b3c a57f b43c 9f48 47bc 4291 9dbc
00000060: 30af 303b 235c 7c3d fa52 d63c c1b0 4f3d
00000070: 1d7d 183d b61f c23c b9b6 073c e3a3 86bc
00000080: d7b0 25bd d1ab f1bc 6e95 153d 2b68 7a3c
00000090: 8f69 083c a544 43bd 62ee 3abd 1168 cdbc
000000a0: 7cdd 1abd fa36 e73c d17b 5dbc e60e 2d3d
000000b0: cd24 54bd a8da 553d 261a b33c 859d 9d3b
000000c0: 06ca d8bb d172 e73a 9661 e63c f68c 8ebc
000000d0: 2207 e03c a489 633d adb9 c13c 9f10 273b
000000e0: 3aef 11bc 6325 003d 29aa 103d 8f20 063d
000000f0: 323b 183d 41ac 50bd 1667 6dbd 3881 19bc
00000100: 2db4 393d 5d6e 5f36 e417 93bc cd10 253d
00000110: cfd6 83bb 39a6 b0bc d75c 2c3d e8c6 ec3c
00000120: 0f10 22bd 6cea 0cbd e903 623d 7a0a 563d
00000130: 7f3b 24bc ff7c 3f3d 21c7 3f3c 2bd0 2a3d
00000140: 2291 78bc b6d4 d0bc 994f e93c be18 803d
00000150: 7fb4 ec3c 1da6 85ba d994 77bc 4430 813c
00000160: 42a8 63bb f2d4 30bd dba3 1abc 3d53 f63c
00000170: b5fe 8b3c 7e75 703d b13d 1d3d 519b 66bd
00000180: 2d56 753d eaba 08bd 543f 65bd 77bc 58bc
00000190: e2a3 0fbd 5b0f 70bd b696 e239 e36c 0dbc
000001a0: d5b1 3d3d 8d18 623d e99a d7bc b2be 41bd
000001b0: 5c79 19bd 8923 c9bc 167e 583d 326b 27bd
000001c0: a5e8 16bd 722b c63c a599 523d 4178 f4bc
000001d0: c13f 15bd 6ab7 24bd 02a9 833c 8c9d 0fbd
000001e0: 0016 81bd f50f 5b3d 614c aebc 8a67 14bc
000001f0: 050a cd3c 2564 4e3c 63ec c43b 9d20 eb3c
00000200: 1404 703d ccc3 26bc 19d1 003d 55cd 44bd
00000210: 9d3a b03b d29d f0bb fabe 9bbc 8eb2 243c
00000220: 7ec2 10bd 0af3 73bd 9efe 3dbc 4cf2 aabc
00000230: 9b52 9f3c 3a9f 0ebb cd87 01bc 4db4 5b3d
00000240: 1d77 35bd b43c 3c3d d991 d5bc a715 cfbc
00000250: 03ec 24bd 8ef0 6ebb f4f5 26bd d606 fbbc
00000260: 7aeb 12bd 777d 0fbd 7624 a8bc 89e7 00bd
00000270: 5aca 653d 92cc e0bb 1b26 403c 7094 303d
00000280: cafe d5bc 7fa6 f73c e7b6 c5bc cd55 5dbd
00000290: d2f4 743d 8e60 bbbc 3029 5ebd 57b7 8c3c
000002a0: 13d8 583d 8568 1f3d 2a5f c63b 4310 d0bb
000002b0: 389f 9d3c 75c4 15bd effd 0abd d3f2 6cbd
000002c0: 4ab3 d7bb eb3c 5fbd 07d2 11bd 8e5b 623d
000002d0: 6899 a43c f2b7 293c c2e3 1b3c 3498 903c
000002e0: 8248 71bd 2e69 593d 42ac 043d ae90 f63c
000002f0: 5d06 483d 34ef 91bc 69dc dd3c 51d2 223b
00000300: 01a4 75bd 4fa8 0dbb ee9a 7c3b 1b69 19bd
00000310: 5907 40bd ea42 1d3d 211a 5abc a8e0 d2bc
00000320: 2900 343d 5ac1 79bd 4c42 373c 4e11 573d
00000330: 1b32 4fbd 66ea bc3c 82be 2fbc 98fe 893c
00000340: ae60 febc 9581 55bd b604 e93c 950e 693d
00000350: 5860 e2bc 62eb c53c a60f 3c3d 7874 5cbd
00000360: f23f 6d3c 0bb2 bebb b348 41bd 9dfa 84bc
00000370: 34db 6b3d b907 05bd fde5 bcbc a711 f6bc
00000380: 3664 8839 d7ab dabc ebf4 3fbd 91ab 193d
00000390: 47cf 3abb b1af 303c 77ca fcbb aefa 7dbd
000003a0: 9005 7f3d c72d edbc b9ab 58bd 5194 ebbc
000003b0: 4480 1a3d d3de 9e3c 0812 7d3c c05b 01bd
000003c0: 47a3 40bd 2a45 4b3d 6c6e 633d 47c3 f73c
000003d0: 9457 303d e6f9 06bd fa51 8abc 83b2 02bd
000003e0: 2e0d 2a3d 1f61 73bd f08c 00bd e078 2fbd
000003f0: 9bdf 613d 723c 48bd d459 a1bc da20 593d

conv2.bias f4 [20]
0.050363988 0.056756046 -0.018351333 0.010366013 0.032135714 -0.0064284108 -0.047253337 0.010279413
-0.05900282 -0.012758591 -0.03674489 0.055683456 -0.010877014 0.0060211583 -0.0006286255 0.0045716325
0.024877243 -0.014079618 0.04520086 0.030801967
00000000: 784a 4e3d 0779 683d 8955 96bc 36d6 293c
00000010: bda0 033d 6ba5 d2bb b78c 41bd fc6a 283c
00000020: f1ac 71bd 6909 51bc cf81 16bd 5614 643d
00000030: 8135 32bc 234d c53b 58ca 24ba a2cd 953b
00000040: 5ccb cb3c 33ae 66bc 8924 393d 6854 fc3c

fc1.weight f4 [50, 500]
-0.041842166 0.029596923 -0.03169253 0.034827147 -0.010011701 0.041545153 0.03165479 0.029400736
-0.018501354 -0.003163454 0.029651271 -0.041026548 0.008491952 0.030822715 0.019256199 0.018482357
0.03114561 0.0047932533 0.023715314 -0.035374526 -0.014317867 -0.031821538 -0.006404491 0.014035218
0.035061218 0.030576246 0.038100027 0.040219706 0.007787703 -0.025425192 -0.033408068 0.042702813
-0.0012369012 -0.02388284 -0.019197695 0.019470824 0.012354957 0.03532952 -0.03663687 0.039270487
-0.042946972 0.003924044 0.03462517 -0.03877491 0.019156069 -0.044269208 -0.033444766 0.003384657
0.033002786 0.014394097 0.017153557 -0.02159178 -0.038518183 -0.029300645 0.020630902 -0.012229603
-0.04110633 -0.038101695 0.0136011895 0.015625075 0.03753939 0.003244711 -0.027074898 0.034219537
0.031030748 0.00394702 0.025651054 0.043370686 0.009979049 0.022754878 -0.024849746 0.03072697
-0.008392815 0.0064259083 0.03062858 -0.040160123 0.0024119108 -0.04289482 -0.028953953 -0.014843121
0.03137449 -0.027962772 0.025078826 -0.028375963 -0.012388682 0.00898251 -0.012891818 -0.01078152
0.007934753 -0.018880082 -0.023271924 -0.008926941 0.018476702 -0.00838446 0.038054083 0.0014136547
-0.022525929 -0.033838008 0.006406978 0.02738366 0.030361231 0.037670482 0.042812176 -0.010544116
0.017833605 -0.013870361 0.0071875066 -0.026232611 -0.038730644 0.007136651 -0.03811685 0.039475325
0.017370142 -0.002348531 0.011775224 -0.010141204 0.03618263 0.035278782 0.0042760107 0.01924949
-0.02813361 0.0029868016 0.008838675 -0.027202964 0.030523695 0.02796245 0.027683962 -0.01187713
-0.00081258884 -0.026277052 0.03390765 0.021522554 -0.010965595 0.02214517 0.009980286 0.025179818
-0.01368146 -0.00013341031 0.028568452 0.013223718 -0.009547514 0.034904946 -0.0019131493 0.04258342
0.020234725 0.030289551 -0.008713959 0.02331676 -0.03682399 0.03560683 -0.007813309 -0.01271413
0.03635537 0.0037087353 0.030737434 0.03405324 -0.004755466 0.0021749213 0.017051568 -0.032848213
0.025157345 -0.030433528 0.026727112 0.011068737 -0.019875051 0.041129835 0.041703228 0.040207524
-0.03269268 0.024930827 -0.0027655747 0.02632137 -0.0028064547 0.042226948 -0.023270432 0.017978383
0.0027472526 -0.03777853 -0.017179154 -0.010876805 0.020185113 -0.026076099 0.027505994 0.01337728
0.035357434 0.0034488786 -0.012954507 -0.011844535 -0.021115765 -0.02133223 -0.039278526 -0.024389135
0.0019700313 0.028295346 -0.042989045 -0.019840054 0.03313099 0.03223355 -0.0045345775 -0.0025311348
-0.009937748 0.023837846 0.028284425 -0.028719705 0.013840712 -0.026935019 -0.002951822 -0.032890167
-0.015744725 -0.0061728572 0.019530756 -0.033090275 -0.016953204 0.030595062 -0.04067252 0.025201691
-0.026897108 0.0080807265 -0.0029597292 -0.015120761 0.04301536 0.010558305 -0.015123833 0.029260233
0.022428354 -0.03602148 0.04285652 0.015739927 -0.0110234665 -0.026728617 0.03171369 0.013495443
0.012884393 -0.020618767 0.02933328 -0.04056896 0.042353243 0.037704073 0.0159651 0.019985953
0.034188204 0.030185893 -0.0042909477 0.035905596 -0.0021452894 0.021605404 0.032995116 0.039378718
-0.037790008 0.02368469 0.03169105 -0.040690035 -0.012938345 -0.005869048 0.0018047962 -0.035859432
00000000: b162 2bbd 3f75 f23c 07d0 01bd e9a6 0e3d
00000010: 1e08 24bc 402b 2a3d 74a8 013d d0d9 f03c
00000020: 2790 97bc f351 4fbb 39e7 f23c 740b 28bd
00000030: d421 0b3c eb7f fc3c 2dbf 9d3c 5068 973c
00000040: 1425 ff3c b910 9d3b 9e46 c23c e1e4 10bd
00000050: 7d95 6abc 4d57 02bd c4dc d1bb f9f3 653c
00000060: 5a9c 0f3d 097b fa3c c60e 1c3d 6bbd 243d
00000070: fd2f ff3b 7e48 d0bc e6d6 08bd 25e9 2e3d
00000080: 841f a2ba f2a5 c3bc 7c44 9dbc 4781 9f3c
00000090: 726c 4a3c b0b5 103d 8b10 16bd 17da 203d
000000a0: 2ae9 2fbd 4495 803b 1fd3 0d3d 71d2 1ebd
000000b0: 30ed 9c3c a153 35bd 61fd 08bd 1fd1 5d3b
000000c0: ee2d 073d 38d5 6b3c 9e85 8c3c 3fe1 b0bc
000000d0: 3ec5 1dbd e807 f0bc 2302 a93c ac5e 48bc
000000e0: 1c5f 28bd 8610 1cbd 86d7 5e3c 2800 803c
000000f0: e7c2 193d 38a5 543b 2dcc ddbc c929 0c3d
00000100: 3234 fe3c 0156 813b 2922 d23c 76a5 313d
00000110: 2a7f 233c 7068 ba3c b291 cbbc 20b7 fb3c
00000120: 0482 09bc 6d90 d23b cae8 fa3c f17e 24bd
00000130: 2611 1e3b 7bb2 2fbd d730 edbc 9030 73bc
00000140: 8a82 003d 2f12 e5bc 1c72 cd3c b574 e8bc
00000150: e6f9 4abc 612b 133c 3438 53bc f9a4 30bc
00000160: c400 023c 67aa 9abc c3a4 bebc 4e42 12bc
00000170: 745c 973c f95e 09bc 99de 1b3d 614a b93a
00000180: 4c88 b8bc b999 0abd a0f1 d13b b353 e03c
00000190: 1eb8 f83c 5d4c 1a3d d25b 2f3d 3ac1 2cbc
000001a0: c817 923c 8340 63bc 2d85 eb3b c6e5 d6bc
000001b0: 06a4 1ebd 91da e93b 6a20 1cbd e1b0 213d
000001c0: d44b 8e3c d0e9 19bb deec 403c 4b27 26bc
000001d0: 3d34 143d 7c80 103d c71d 8c3b 1bb1 9d3c
000001e0: 7578 e6bc 37be 433b 17d0 103c c0d8 debc
000001f0: d40c fa3c 8211 e53c 7ac9 e23c 4b98 42bc
00000200: ea03 55ba f942 d7bc bfe2 0a3d 1150 b03c
00000210: 0aa9 33bc ca69 b53c 5a84 233c e845 ce3c
00000220: 3428 60bc 0fe4 0bb9 6308 ea3c 4ba8 583c
00000230: 2d6d 1cbc 7df8 0e3d a3c2 faba f46b 2e3d
00000240: 4bc3 a53c cb21 f83c fec4 0ebc ca02 bf3c
00000250: c1d4 16bd 78d8 113d 6503 00bc ed4e 50bc
00000260: 5ee9 143d 410e 733b 12cd fb3c 697b 0b3d
00000270: bdd3 9bbb 2089 0e3b bbaf 8b3c d98b 06bd
00000280: c716 ce3c bc4f f9bc d1f2 da3c a659 353c
00000290: 01d1 a2bc c277 283d 01d1 2a3d a5b0 243d
000002a0: c2e8 05bd bc3b cc3c a53e 35bb ea9f d73c
000002b0: 7fec 37bb 2af6 2c3d a2a1 bebc 6747 933c
000002c0: 400b 343b a9bd 1abd 4cbb 8cbc a034 32bc
000002d0: 405b a53c 8b9d d5bc 4054 e13c 612c 5b3c
000002e0: f5d2 103d 9506 623b 243f 54bc 950f 42bc
000002f0: f8fa acbc eec0 aebc 85e2 20bd b9cb c7bc
00000300: a41b 013b a4cb e73c 4815 30bd 9c87 a2bc
00000310: 5cb4 073d 5407 043d cb96 94bb 65e1 25bb
00000320: f0d1 22bc 9647 c33c bdb4 e73c 9645 ebbc
00000330: 27c4 623c d4a6 dcbc 5b73 41bb d7b7 06bd
00000340: 15fb 80bc ae45 cabb f7fe 9f3c ab89 07bd
00000350: 72e1 8abc 7fa2 fa3c 3a98 26bd c773 ce3c
00000360: 5357 dcbc 0665 043c 04f8 41bb 11bd 77bc
00000370: e030 303d befc 2c3c f4c9 77bc 28b3 ef3c
00000380: abbb b73c 428b 13bd 518a 2f3d 05f1 803c
00000390: c59b 34bc f9f5 dabc 37e6 013d fe1b 5d3c
000003a0: 1019 533c b0e8 a8bc 594c f03c a32b 26bd
000003b0: 987a 2d3d 966f 1a3d 3ec9 823c 95b9 a33c
000003c0: ee08 0c3d 6848 f73c 149b 8cbb bf11 133d
000003d0: fc97 0cbb d1fd b03c e325 073d 944b 213d
000003e0: b2c9 1abd 6506 c23c 79ce 013d 98aa 26bd
000003f0: 5afb 53bc 2551 c0bb e98e ec3a 57e1 12bd

fc1.bias f4 [50]
-0.0172955 -0.0036669406 -0.029011892 0.03717227 -0.041392364 0.02419428 0.013334938 -0.031109598
0.015013882 -0.022475265 -0.01611936 0.03454799 0.026411582 0.028042132 0.012249118 -0.029823814
0.011211392 0.03797195 -0.0029396839 -0.024669502 -0.02477658 0.042081747 -0.022287339 0.019351546
0.025682108 -0.038402304 0.034301445 -0.0071151652 0.020953072 0.030153055 0.00769589 0.034407947
0.0034946029 -0.0013411838 -0.022807749 -0.0262319 0.0027679857 0.021577543 0.0220205 0.030205037
0.023809984 0.014877479 0.011304314 -0.036999647 0.02088892 0.033048425 -0.040559452 0.01743593
-0.026525455 0.03599254
00000000: 4baf 8dbc 0e51 70bb 59aa edbc f341 183d
00000010: 0a8b 29bd 1533 c63c c97a 5a3c 8ed9 febc
00000020: c9fc 753c 0c1e b8bc c00c 84bc 3182 0d3d
00000030: 1a5d d83c 9db8 e53c 86b0 483c 1251 f4bc
00000040: fcaf 373c 7a88 1b3d b6a7 40bb b217 cabc
00000050: 41f8 cabc e95d 2c3d f093 b6bc 2287 9e3c
00000060: 4963 d23c bc4b 1dbd ac7f 0c3d 5526 e9bb
00000070: c7a5 ab3c 8a03 f73c ce2d fc3b 59ef 0c3d
00000080: b505 653b a9ca afba 51d7 babc 48e4 d6bc
00000090: 1867 353b 63c3 b03c 5664 b43c 8e70 f73c
000000a0: 280d c33c abc0 733c bb35 393c f18c 17bd
000000b0: 3e1f ab3c c95d 073d ab21 26bd ccd5 8e3c
000000c0: e94b d9bc ea6c 133d

fc2.weight f4 [9, 50]
-0.12300853 0.039318126 -0.02481327 0.107942834 -0.0071939146 0.0007073798 -0.13380441 0.085962504
-0.0067303297 0.11051169 -0.09084193 0.059386898 0.10089776 0.06911298 0.11783881 -0.039390907
-0.045154724 0.08706876 0.11079163 0.0011430734 0.037431408 -0.0376465 -0.019553525 0.109715
0.121477656 0.1363224 -0.11452715 0.10834558 -0.035287686 -0.09891534 0.09214124 0.010961616
0.05811399 0.06983821 -0.030499497 0.09809579 -0.046355903 0.10657518 -0.13091539 0.03494351
0.033771683 0.1223759 -0.118804105 0.12054677 0.12983893 -0.03465852 -0.06556743 0.1011508
0.07839843 -0.020190878 0.012764881 0.08928224 0.06014213 0.12730883 -0.018587545 -0.020919174
-0.032865133 0.0350861 -0.13922258 -0.059317723 0.051276416 -0.057513047 0.04817202 0.11757613
-0.05569492 0.0534838 0.055272 0.05744613 0.06314253 -0.105959125 -0.10423632 0.023702769
0.03719867 -0.024548996 -0.116666086 0.046531737 0.007922665 -0.003127298 0.052705694 -0.09602866
-0.053697944 0.024864325 0.10884733 0.038353555 0.073128015 0.10223365 0.0182636 -0.045042578
-0.07193234 -0.063327834 -0.056175634 0.119832546 0.09203271 -0.13528302 -0.00489963 0.10956305
-0.10666142 0.11323718 -0.07490134 0.091638885 0.06141673 -0.061043076 -0.08228357 -0.09407068
-0.113642976 -0.026458925 -0.1344028 -0.07061794 -0.011024949 0.06049131 -0.01181741 -0.13301188
0.041623615 0.10794782 -0.010199052 -0.03829122 -0.033680584 0.02359418 -0.073186584 0.0022238623
-0.12729596 0.021092566 0.031945378 -0.121459 0.038740613 0.07288141 -0.13876228 0.007988306
-0.10949736 -0.08585674 -0.06927174 0.03564046 -0.049288046 -0.078941815 0.013247443 0.13816091
-0.03862493 -0.13172148 0.09048099 -0.038887016 0.027007284 -0.04371225 -0.04676305 0.12805088
0.030973483 0.102859184 0.029977048 -0.02309639 0.038386866 -0.10703223 -0.113748066 0.13823567
0.048014242 0.11293862 0.083485655 -0.07167994 0.048947874 -0.057677776 -0.1081748 -0.09972497
-0.037454147 0.106240384 -0.01531653 0.10627903 0.035145354 -0.037823543 -0.047303457 0.12666275
0.087487414 0.09722953 0.09074846 0.13510257 0.1295534 0.09641432 -0.025280092 -0.12673794
-0.056088995 -0.065448314 0.13605504 -0.06607265 0.064896666 -0.07973045 0.041234385 0.058546532
-0.05309968 0.08723987 0.078887835 0.010603315 0.0451974 0.024647778 -0.09383437 -0.13258374
-0.0496779 0.1089585 0.01526834 -0.036960326 0.06388423 0.01601463 0.044572927 -0.03137056
0.04483003 -0.094471276 -0.09806461 0.012745493 0.09476918 -0.08759389 -0.09678349 0.103261694
0.10517442 0.13544518 0.10445255 -0.05207379 0.0028116237 -0.040814895 0.02332041 -0.08214843
-0.032994635 -0.06265553 -0.08753451 0.009694597 -0.06613137 0.02907313 -0.062587276 0.12799776
-0.08353188 0.12716833 -0.11976835 -0.057924543 -0.03480411 0.11354919 0.009549804 0.096493356
-0.001369242 0.07544451 -0.046297796 -0.031088796 0.1003549 0.124831095 0.1184859 0.08338592
0.04479265 0.021136984 -0.0013805082 -0.017953763 -0.032607518 -0.03649325 -0.11883788 -0.017688889
0.0071928496 0.1019658 0.06572423 0.046933416 -0.041622967 -0.04122579 0.04979214 0.019803353
00000000: e5eb fbbd 0b0c 213d 3345 cbbc 2211 dd3d
00000010: eeba ebbb 746f 393a 0604 09be 1c0d b03d
00000020: 198a dcbb f453 e23d 550b babd ad3f 733d
00000030: 7ca3 ce3d 1b8b 8d3d 7955 f13d 5c58 21bd
00000040: 29f4 38bd 1b51 b23d b9e6 e23d 2ed3 953a
00000050: ad51 193d 3733 1abd b72e a0bc 42b2 e03d
00000060: 47c9 f83d 1998 0b3e 368d eabd 4ae4 dd3d
00000070: d289 10bd 2094 cabd 8cb4 bc3d 5a98 333c
00000080: ef08 6e3d 5607 8f3d 15da f9bc 72e6 c83d
00000090: b0df 3dbd 1744 da3d af0e 06be ed20 0f3d
000000a0: 2d54 0a3d 37a0 fa3d 914f f3bd 3ae1 f63d
000000b0: 7ff4 043e 18f6 0dbd 3748 86bd 2728 cf3d
000000c0: 5b8f a03d 5767 a5bc cb23 513c 9bd9 b63d
000000d0: 9857 763d 3f5d 023e e844 98bc b05e abbc
000000e0: 979d 06bd 71b6 0f3d 5d90 0ebe 24f7 72bd
000000f0: 3807 523d cd92 6bbd 0650 453d c1cb f03d
00000100: 5b20 64bd d411 5b3d e564 623d a24c 6b3d
00000110: df50 813d 1901 d9bd da79 d5bd 4f2c c23c
00000120: a25d 183d fa1a c9bc a1ee eebd 1098 3e3d
00000130: 11ce 013c 5bf3 4cbb ede1 573d adaa c4bd
00000140: 60f2 5bbd 45b0 cb3c 59eb de3d 9e18 1d3d
00000150: 24c4 953d e05f d13d 8c9d 953c 917e 38bd
00000160: 4351 93bd 06b2 81bd 6c18 66bd c46a f53d
00000170: a57b bc3d a287 0abe 138d a0bb 9862 e03d
00000180: 4d71 dabd e5e8 e73d e065 99bd 2bad bb3d
00000190: 1c90 7b3d 4e08 7abd 4a84 a8bd 21a8 c0bd
000001a0: a6bd e8bd 63c0 d8bc e3a0 09be 23a0 90bd
000001b0: fda1 34bc bcc5 773d cf9d 41bc 4434 08be
000001c0: 867d 2a3d bf13 dd3d ed19 27bc 41d7 1cbd
000001d0: a7f4 09bd 9548 c13c d9e2 95bd 38be 113b
000001e0: df59 02be 51ca ac3c 28d9 023d 7fbf f8bd
000001f0: 7aae 1e3d d942 953d b317 0ebe 62e1 023c
00000200: 2740 e0bd a9d5 afbd 58de 8dbd bbfb 113d
00000210: 43e2 49bd 3fac a1bd ce0b 593c 0e7a 0d3e
00000220: 2d35 1ebd ffe1 06be 194e b93d fe47 1fbd
00000230: 613e dd3c 9e0b 33bd 9d8a 3fbd c51f 033e
00000240: 1abc fd3c d6a7 d23d 6d92 f53c a434 bdbc
00000250: 8c3b 1d3d b733 dbbd bff4 e8bd a78d 0d3e
00000260: 95aa 443d 5d4c e73d 87fa aa3d efcc 92bd
00000270: 917d 483d 883f 6cbd c08a ddbd 9b3c ccbd
00000280: 8569 19bd 8f94 d93d 2ff2 7abc d2a8 d93d
00000290: 93f4 0f3d dcec 1abd 45c1 41bd e1b3 013e
000002a0: 9a2c b33d 4720 c73d 54da b93d 5458 0a3e
000002b0: a6a9 043e df74 c53d 3218 cfbc 97c7 01be
000002c0: 93bd 65bd c409 86bd 0352 0b3e 1951 87bd
000002d0: 8be8 843d b849 a3bd 63e5 283d 7dce 6f3d
000002e0: 0d7f 59bd d1aa b23d f28f a13d 87b9 2d3c
000002f0: e920 393d 23ea c93c 3c2c c0bd 08c4 07be
00000300: 0e7b 4bbd a225 df3d 0f28 7a3c b663 17bd
00000310: bcd5 823d 1d31 833c 1a92 363d 6b7e 00bd
00000320: b29f 373d 287a c1bd 19d6 c8bd 79d2 503c
00000330: 5816 c23d 6d64 b3bd 6c36 c6bd de7a d33d
00000340: b065 d73d 24b2 0a3e 38eb d53d 544b 55bd
00000350: 3843 383b 852d 27bd 720a bf3c 703d a8bd
00000360: 6225 07bd 8b51 80bd 4b45 b3bd 16d6 1e3c
00000370: e26f 87bd c62a ee3c c22d 80bd d811 033e
00000380: c312 abbd 6a38 023e 1c49 f5bd 4942 6dbd
00000390: c18e 0ebd 7a8c e83d c876 1c3c 4f9e c53d
000003a0: 2378 b3ba a782 9a3d c2a2 3dbd eead febc
000003b0: df86 cd3d 72a7 ff3d bca8 f23d 3dc6 aa3d
000003c0: 7f78 373d 7827 ad3c 2bf2 b4ba c513 93bc
000003d0: 768f 05bd f279 15bd 4661 f3bd 4ae8 90bc
000003e0: ffb1 eb3b 72d3 d03d 6d9a 863d 413d 403d
000003f0: d87c 2abd 60dc 28bd d8f2 4b3d a43a a23c

fc2.bias f4 [9]
0.047122277 0.051171098 -0.0016137816 0.11318163 0.016158912 0.12973793 -0.13388881 0.042108126
-0.059744038
00000000: 4a03 413d c998 513d 8685 d3ba c5cb e73d
00000010: b25f 843c 05da 043e 261a 09be 9279 2c3d
00000020: 2ab6 74bd
