cifar_net.pth (torch_old, 246881 bytes, 10 tensors)

conv1.weight f4 [6, 3, 5, 5]
00000000: 5761 903b a769 2bbd 73ab d4bd 916b ca3d
00000010: 704b 6e3d 9bb8 91bc 1061 c6bd d757 8cba
00000020: bd53 ae3d dd67 523d 31dd 8fbd 2528 6fbb
00000030: 041c adbd 2dc3 b2bd 3174 ca3d d7ba 49bc
00000040: d823 943d 1870 ab3d 6841 d83c 3be9 c43d
00000050: 0f41 9dbd ef5b 783d 9f6e 08bd b46e e8bd
00000060: d8c0 d53d f5dc b23c bbb4 bb3c 922b d0bc
00000070: 46ef 423c 90cb b6bd 1a2c d9bd e032 18bc
00000080: 71e8 85bc 8b37 d2bd 7ca1 31bd 02f9 21bd
00000090: 3ae3 9f3d b0f4 cc3d 3f4a a3bd 141e 19bd
000000a0: 1b38 323d b3c9 c4bc bf49 8f3d b65d 6fbd
000000b0: 109e 6fbd 3358 373d 547e 4a3c 5eab a1bd
000000c0: dc34 adbd c1bf ba3b c1b8 91bd f9fb ebbd
000000d0: d95a 613d 07b8 52ba 7a4c 85bd 7849 9fbd
000000e0: 36d4 8abd 5549 e9bc 7cd3 b83d c382 cbbd
000000f0: 4037 3a3d a9b8 98bd fe84 9ebd 89c6 cf3d
00000100: 688e d53d 1789 97bc be3e 84bd df5a 083d
00000110: 47c9 8ebd 8c70 393d f790 b9bb 2887 85bd
00000120: a3b3 843d 7876 a13d 41fa c2bd be73 bebc
00000130: 1aea 823d ff0f e33d 1872 0cbd 6992 8ebc
00000140: 5db3 cebd d3bc 5c3c 90bd 1abc bfbc c2bd
00000150: 0f45 e6bd 15ff ca3d 143d c23d fd3c 9fbd
00000160: 7bad 85bd 3172 cdbd 7913 3f3d e642 25bd
00000170: 79bb a9bc 0d47 b03d f35f db3b cad9 9b3d
00000180: f550 debd e9ad debd 55eb c1bb e99a 6cbd
00000190: f91d 333c 20a6 203d c3e3 c3bd ab5e df3d
000001a0: 622a 40bd b9e9 523d 49e2 a93d 11f8 833c
000001b0: 7190 d33d 06e4 5fbd 2f75 79bd 0bcf ca3d
000001c0: 4095 853d f0a6 143d 833e ddbd d927 aa3d
000001d0: f373 84bd c14d cebd 83ab de3b 4c56 1dbd
000001e0: d4c5 d2bd d062 9d3d 51bc 24bd a60f c5bb
000001f0: 62cb 753d c706 94bc fb72 5dbd b112 f83b
00000200: 1d15 dcbd 28e2 78bc 9970 a93b ffad 5ebc
00000210: b710 853c 9009 2ebc da08 da3d 224b aabd
00000220: 3d42 883d 4500 8e3d d474 5d3d ad7f e63c
00000230: 7746 b63d 0cb8 a5bd 6e06 04bd c410 9d3d
00000240: 28fb e2bd 1120 90bd 0ec2 df3d 9049 e3bb
00000250: 9750 ea3d 04cc 18bd fc62 cdbb ac63 c43d
00000260: f362 d13d 8932 73bd 8a1b 87bd 626b bbbd
00000270: 73c7 39bc a99e d0bc 3b71 ca3d 53fd c93d
00000280: 385f b6bd 9e97 b83d 302f d0bd 7a83 0cbd
00000290: 33ce 6d3d 88e9 7abd 8499 cfbd af9a 8bbd
000002a0: 200d dd3d 6a93 c1bd 1962 06bd 7ab6 b03d
000002b0: fa18 313d b172 6ebd b44d f23b 25b1 a13d
000002c0: ed63 d2bd bbcd 203d ddca 8ebd 36dc 103d
000002d0: 7e36 d2bd abb8 1d3d 488c 49bd ddea cbbd
000002e0: a5f3 b03d 321c 89ba 9467 a93d e465 e9bd
000002f0: 6ae9 ae3d ca2e 2e3d 0e9d e4bd 2ae5 033d
00000300: 44fe c23d e43b 45bc 3121 2fbc bcb8 773d
00000310: aa44 d23d 4606 8c3d 3e52 db3d 2c0f d73c
00000320: e036 aabd ab9b 91bd 6874 65bc bc87 dabd
00000330: 4262 c03d 95f7 1e3c c44f de3d f361 dfbc
00000340: b998 a63d bd26 83bd dc54 81bd 7d97 bfbb
00000350: 7fc0 5e3c 9d0c e83d 4494 ea3d aefd bc3d
00000360: 4c51 14bc bba1 5e3d 323a 083d fff4 9a3d
00000370: 7f31 e63c a90a a6bd 1b5c b43d a3cd 0d3d
00000380: c239 163d 076e 84bc 7c48 0cbd 49f3 27bb
00000390: 5bf1 033d 80b7 91bd 304e 0e3d 74e2 15bc
000003a0: 49a8 123d ef88 8f3d 6de1 75bd 8002 a7bc
000003b0: 2822 4fbc b6cc adbd 06fc fd3c 1e29 debc
000003c0: 1ed5 313c 2541 cf3d 6579 403b 01a7 78bd
000003d0: 4abb 9bbd ac7d d63d 7ab3 61bd 9150 bebd
000003e0: d648 6b3d 8bb5 d83d 30e2 313c ef3a 6fbd
000003f0: 9650 e43d b879 e7bc 000e 243d 7db5 c83d
0.004406135 -0.041848805 -0.10384264 0.09883798 0.05817741 -0.017788222 -0.09686482 -0.0010707331
0.085120656 0.051368583 -0.07024611 -0.0036492434 -0.08452609 -0.08728633 0.09885443 -0.0123126125
0.07233399 0.083709896 0.026398376 0.09614798 -0.076784246 0.06063455 -0.03330862 -0.1134924
0.10437173 0.021833876 0.022913327 -0.025411401 0.011897868 -0.08925545 -0.10604115 -0.009289473
-0.016346188 -0.102645 -0.043366894 -0.039544113 0.07807012 0.10007608 -0.07973146 -0.0373822
0.043510538 -0.024021959 0.06996488 -0.05843898 -0.05850035 0.044761848 0.012359221 -0.07894014
-0.08457348 0.0056991284 -0.07115317 -0.11522669 0.05501828 -0.00080382865 -0.06508727 -0.07777685
-0.06778757 -0.02847735 0.090247124 -0.0993705 0.045462847 -0.07457096 -0.0774021 0.101452895
0.104275525 -0.018497987 -0.064572796 0.033289786 -0.06971984 0.04527335 -0.005663033 -0.0651992
0.064795755 0.07883924 -0.095203884 -0.02324855 0.063923076 0.110870354 -0.034288496 -0.017403798
-0.100928046 0.013472754 -0.009444609 -0.09508657 -0.11243641 0.09911934 0.09484306 -0.077753045
-0.065272294 -0.10031546 0.04664943 -0.040347002 -0.020719277 0.08607302 0.0066947876 0.07609899
-0.10855285 -0.108730145 -0.0059179463 -0.05776492 0.010932439 0.03922093 -0.095649265 0.10906728
-0.04691542 0.051492427 0.082951136 0.016109498 0.103302844 -0.05466082 -0.06090277 0.099027716
0.06522608 0.036292017 -0.10802939 0.083083816 -0.06467428 -0.10073424 0.006795348 -0.038412377
-0.10291639 0.076848626 -0.040218655 -0.0060138283 0.060008414 -0.018069638 -0.054064732 0.0075705876
-0.107462145 -0.015190639 0.0051708934 -0.013591289 0.016243322 -0.010622397 0.106462196 -0.08315112
0.06653259 0.06933645 0.054066494 0.028137052 0.08900159 -0.08091745 -0.032232694 0.076692134
-0.110830605 -0.07037366 0.10925685 -0.0069362596 0.114411525 -0.03730394 -0.0062679034 0.095893234
0.10223951 -0.059374366 -0.065970495 -0.09151341 -0.011339056 -0.02546628 0.09884878 0.09862771
-0.0890488 0.09013294 -0.1016525 -0.034305073 0.058057975 -0.06125787 -0.10136703 -0.06816613
0.10793519 -0.09451945 -0.032808397 0.08628555 0.04323671 -0.058214847 0.007394517 0.07895116
-0.102729656 0.0392587 -0.06972287 0.03536626 -0.102643 0.03850619 -0.04920605 -0.09956906
0.086402215 -0.0010460673 0.08271709 -0.11396387 0.08540614 0.04252509 -0.11162768 0.03220097
0.095211536 -0.012038205 -0.010689066 0.06047891 0.10267003 0.06837134 0.10709046 0.026252352
-0.08311248 -0.071097694 -0.014004804 -0.106704205 0.09393741 0.009702583 0.10855058 -0.027268386
0.08134598 -0.06403873 -0.06315014 -0.005846916 0.013595699 0.11330531 0.11454061 0.09228073
-0.009052586 0.054353457 0.033258624 0.075662605 0.028099773 -0.08107502 0.0880663 0.03461994
0.036676176 -0.016165746 -0.034248814 -0.0025627187 0.032212596 -0.07115078 0.034742534 -0.009148229
0.03580502 0.0700854 -0.060029436 -0.020386934 -0.012642421 -0.08486311 0.031003963 -0.027119216
0.010854034 0.10119847 0.0029369232 -0.060706142 -0.07604082 0.10473189 -0.055102803 -0.092927106
0.05744251 0.105815016 0.01085715 -0.058405813 0.11148183 -0.028256282 0.040052414 0.09800241

conv1.bias f4 [6]
00000000: bab4 653c 2da9 9d3d 3caf 0d3d 56ab bebd
00000010: 89cf 113d 15b8 0b3d
0.014020139 0.07698283 0.034590945 -0.093100235 0.03559831 0.0341111

conv2.weight f4 [16, 6, 5, 5]
00000000: d004 5fbd ecd1 a83c 53a5 a4bd aa3d 233d
00000010: 1869 733d 22db a63d 7161 64bd 1f39 5dbd
00000020: 9321 a03d 12bf 19bd 4e15 413c 4dbc bf3c
00000030: 15b9 9c3d 327e 313d 97c4 eb3c 7b93 573d
00000040: 415d 903d 5e3e 9dbd bf15 943d 30dc 65bd
00000050: 2b79 2e3d 2056 7f3c 4e76 913d ccee 413d
00000060: e5cb cb3c c02b 6fbd c9bc 453d 931c 97bd
00000070: 26e6 45bc 711a 18bc 1edb 403d a5e4 cb3c
00000080: fa69 ba3c 5380 1abd 9186 0c3c 4738 923d
00000090: 9c3e cb3b 5b17 813d 079f 0ebd 6aeb 543d
000000a0: 2058 48bd 2057 88bd 778a cebc 6886 41bd
000000b0: e90b 9e3d 282f f83b 473f 64bd b172 2c3d
000000c0: 764c debc 1e0b 6d3d 7748 633b 381e 3bbd
000000d0: 278c 70bd 49aa 9fbd 1b7c 403d 19cd 90bb
000000e0: 0351 10bd 615b 85bd 53b7 aa39 a3db 3cbd
000000f0: aa9f 303d 286f 873d 3133 28bb 9cb6 71bc
00000100: 243e d9bc fcc5 9e3d 93f7 7d3d 95a5 1b3d
00000110: e968 76bd c512 bcbc 7789 313c 2371 7dbc
00000120: 017b e3bb b16c eabc 3141 213d 4066 3dbd
00000130: 3b0f 1cbb 0436 a23d 869c 5b3d d4c3 69bd
00000140: 3a4d da3c d0c0 9abd 49f1 983d 175c f33b
00000150: 5e70 ef3c 1c23 873c 85a6 313d 7d7d f9ba
00000160: 38a0 7f3d b3d3 30bd 42b9 e6bc a5b6 4c3a
00000170: ecf4 443d a2cd 17bd 3dab 86bd deee ebbc
00000180: 8f23 8f3d edc5 5cbd 4183 96bc 01d0 0bbd
00000190: f80a 043d b67b 3f3b 68f5 ac3c bc1d 89bd
000001a0: 5c5f 92bd 48c2 4abd 732c 6abd 486e 9e3d
000001b0: 7758 a23d 1a85 033d 0149 05bd 0349 a03d
000001c0: e135 0bbd b2e3 853d dc00 ab3c df66 d23c
000001d0: 949b 143b 946e aa3c 7bc6 dfbc c767 203d
000001e0: 3a80 8d3c 3c65 53bd 537c 63bd d6bb 26bd
000001f0: 488d 523c 64d6 a1bd c9d0 88bc 0b02 97bd
00000200: 43a9 79bc f8e1 ad3c 54e9 c6bb 469d ba3c
00000210: 33f4 033d 7c60 be3c 2688 5dbd a0e0 afbb
00000220: 2787 5d3c 19aa 5dbd 060c 0ebd 11c2 083d
00000230: 31e8 4b3d 8087 663c 1d26 44bd f45b e13c
00000240: 2a58 773c 515b 70bd 59b0 16bd 9681 abbc
00000250: 3de9 e33b dee6 783d bd6b a2bd 3e4a 4d3d
00000260: 1bcc ddbc 91f2 78bd c66e 8f3c 58e5 933d
00000270: 0c0a 4d3d 8bb4 723c f6d8 3cbd cc6a 74bc
00000280: 946f 9a3b 66a6 893d 3b35 9ebd f3cd 6ebd
00000290: a187 20bd 510a 243d bddd 84bc 581a e43c
000002a0: 0518 adbc da64 01bc fb42 92bd 1c3e 6f3d
000002b0: de56 3dbd a7a4 753b 2f85 993d 77b0 89bd
000002c0: cee9 873d 9d78 8f3c 1af9 60bd 8896 42bc
000002d0: d563 00bd 10d6 4e3d 4d47 a6bd c03e a03d
000002e0: 75f5 4a3d 2a5b 10bc 0b56 e2bc db63 4a3c
000002f0: 4571 843d 1a7f 8cbd a14a 8c3d f626 54bd
00000300: 5b0c 2abd ceb0 803d a64a 203c 7e53 823a
00000310: 136e 373d f658 8fbd 6dde 8dbc b259 8abd
00000320: 7b2d 1f3d 163d 973d 74cd 783d 8864 d53b
00000330: 1802 893c 1df0 9abd b1fb a1bd 71bb a13c
00000340: fc11 bfbb 8816 643d 5230 43bd 72e3 693b
00000350: fedc 6ebd a8e0 25bd 5283 97bc a1d4 6bbd
00000360: a2c6 8abd f32d 473a 4bd3 e0bb 6e44 8ebd
00000370: 1cf8 41bc b9ae 9ebd 650e 28bc ebeb f7bc
00000380: 42db 543d 3c22 12bd 6f2f 983b 76d4 16bd
00000390: 9c3a 5fbd 0937 97bd 526d 48bd 9d08 553c
000003a0: 78e9 efbc b1d7 83bd 572d a7bc c7fd 97bd
000003b0: a08d 48bc d9b9 263d c2c9 8a3d f8f0 883d
000003c0: 2cd4 983d a45f ac3c 7304 133d f4eb f73c
000003d0: 36e3 e43b 8031 473d 0d92 1ebd 0326 743d
000003e0: d7fe 12bc d9a7 cfbc 12a1 053d 4bcb 83bd
000003f0: ccff 8f3d 293e fdbc 9fb8 f0bb f7bc acbc
-0.05444795 0.020607911 -0.080393456 0.03985373 0.059426397 0.08147265 -0.05575699 -0.054009553
0.07818904 -0.037535734 0.011784865 0.023405218 0.07652489 0.04333324 0.028780265 0.052630883
0.07049037 -0.07677911 0.0723071 -0.05611819 0.042596024 0.015584499 0.07102643 0.047346875
0.024877498 -0.058391333 0.048275743 -0.07378497 -0.012078797 -0.009283648 0.047083966 0.0248893
0.022755612 -0.037720036 0.008577005 0.0713964 0.006202532 0.06303283 -0.03481963 0.05198232
-0.048912168 -0.06657243 -0.02521251 -0.04724732 0.077171154 0.007573981 -0.05572441 0.042101566
-0.027136069 0.05787193 0.0034680644 -0.045683116 -0.05872741 -0.07796151 0.046993356 -0.004418981
-0.03523351 -0.0651157 0.00032561514 -0.0461079 0.043121018 0.06612998 -0.0025665278 -0.01475301
-0.026518889 0.07752606 0.062003683 0.03799971 -0.060158644 -0.022958169 0.010835997 -0.015468868
-0.0069421534 -0.028616281 0.039368812 -0.04624009 -0.002381279 0.07920459 0.05361607 -0.057071522
0.026648153 -0.07556307 0.074678965 0.0074267494 0.029228386 0.016496234 0.043371696 -0.0019034591
0.062408656 -0.043170642 -0.02816451 0.00078091986 0.04808514 -0.03706134 -0.0657563 -0.028800424
0.06989204 -0.053899694 -0.018373134 -0.034133915 0.032237023 0.0029218025 0.021113113 -0.066951245
-0.071470946 -0.049501687 -0.057171296 0.07735878 0.079270296 0.032109357 -0.032540325 0.07826426
-0.03398693 0.0653757 0.020874433 0.025683818 0.002267574 0.02080468 -0.027316323 0.03916147
0.017273057 -0.051610216 -0.055538487 -0.040706478 0.012851067 -0.0790222 -0.016701119 -0.073734365
-0.015238109 0.021225914 -0.0060702953 0.022780072 0.03221531 0.023239367 -0.05408492 -0.0053673536
0.013520992 -0.054117296 -0.034679435 0.0333882 0.04978198 0.014070392 -0.04788791 0.027509667
0.015096704 -0.058680836 -0.036789272 -0.020935815 0.0069552944 0.060767047 -0.07930706 0.05011963
-0.027074864 -0.060778204 0.017508876 0.07221478 0.05005841 0.014813553 -0.046105348 -0.0149180405
0.004713008 0.06721191 -0.07724997 -0.058301877 -0.039191846 0.0400489 -0.016219014 0.027844593
-0.021129617 -0.00789758 -0.07141682 0.05840884 -0.04622542 0.0037482174 0.07496106 -0.06723111
0.066363916 0.017513568 -0.05492506 -0.01187671 -0.031345207 0.050497115 -0.08119068 0.078244686
0.049550492 -0.008810798 -0.02762892 0.012352909 0.06466917 -0.0686018 0.06850172 -0.05179497
-0.04151569 0.06283723 0.009783423 0.0009943096 0.04478271 -0.0699939 -0.017317975 -0.06755389
0.038861733 0.07384698 0.06074281 0.0065122284 0.016724631 -0.07565329 -0.079093345 0.0197427
-0.0058310013 0.05568555 -0.047653504 0.0035688546 -0.058316223 -0.040497452 -0.018495236 -0.057575826
-0.067761675 0.00075980945 -0.0068611256 -0.06946646 -0.011838939 -0.077481695 -0.010257338 -0.030263862
0.051966913 -0.03567718 0.0046443264 -0.036823712 -0.054499254 -0.07383544 -0.04893238 0.013002542
-0.029286131 -0.06437624 -0.020407362 -0.07421451 -0.012240797 0.040704582 0.067767635 0.06686586
0.074623436 0.021041699 0.035892915 0.030263878 0.0069850935 0.04863119 -0.038713504 0.059606563
-0.008971891 -0.02534859 0.03262431 -0.064352594 0.07031211 -0.03091343 -0.0073462273 -0.0210862

conv2.bias f4 [16]
00000000: 9bfd 65bd 113c 853b 6721 a53d fa0b 33bc
00000010: 1c72 a33d a6c3 883c 47c6 103c 50a6 52bd
00000020: 087e a2bc 3a21 3b3d 461f f33c 0bed 8b3c
00000030: 9166 65bc d668 293d 14cc 7dbc 5568 e6bc
-0.05615006 0.0040659984 0.080630116 -0.010928148 0.07980749 0.016694855 0.0088363355 -0.05142814
-0.019835487 0.045685984 0.029677998 0.017080804 -0.0140015045 0.041359745 -0.015490551 -0.028125921

fc1.weight f4 [120, 400]
00000000: 2584 60bc 8a94 e8bc 3a19 3dbd fe35 55bc
00000010: e4f5 243d 4d18 af3b e2c2 86bc 8afd 12bd
00000020: 0ef7 df3c af98 633c 432d 3bbc 79a8 22bd
00000030: f3f1 34bd eb8e 80bc 3326 dbbc 6ec7 00bd
00000040: 0541 44bd e199 8dbc 4321 3e3c 6b14 273d
00000050: e0ed b6bc fdc3 e5bc f5c5 72bb 0f8a 0fbc
00000060: 5038 813b bfcd 44bd 2cf3 103d f910 143d
00000070: d23a d83c 3b13 923c f22e eebc 6218 1abd
00000080: a065 93ba 7ff3 2ebd 97c3 ad3b 471f 63bc
00000090: e3aa 893c 935f 3fbd 4851 50bc 60e9 0ebb
000000a0: 80ff 0c3b 0415 1abd 0019 5c3c 3c45 00bd
000000b0: 3e2e 0cbc d9e2 46bd 09c5 f8bc c755 023d
000000c0: a80c a03c 0309 753b 4301 293d 56db 203d
000000d0: bd8a dcbc fec8 453d 5d6f 2b3d 48bf 94bb
000000e0: 20ed 203d dd28 c33c 55c1 e33b f899 b5bc
000000f0: 08ad e6bc 099f dcbb 2fc0 2c3c bc6d 163d
00000100: 7b9b 9abc d56d c2bc 3f62 0dbd 7a49 173b
00000110: 9ec8 38bd 2d41 b7bc 73d8 343d 1bfc 34bd
00000120: 0535 07bd 5d7b 6fbc 0b06 b5bc f6b0 90bc
00000130: 6924 d2bc dd1f 0e3d 517a df3c 9e76 c2bc
00000140: 5ffe 993c 68a8 a63c 3030 46bd 57b5 273b
00000150: e6eb 86bc ede1 143d f1e7 a3bc be6f 233d
00000160: 68f0 03bd 6404 a23c e93e d43c 262c 163d
00000170: 5bde bfbc 1dee ca3b e362 3a3c adad 66bb
00000180: 5880 4c3c cff3 43bd 8f75 3cbd 5a8b 35bd
00000190: f343 db3b 76e4 c4bc 0616 39bd d9b2 49bd
000001a0: 614c 5b3c c818 3dbb 41c5 413d a765 c4bc
000001b0: df85 553b 554f c0bc ded6 e0bb a499 153a
000001c0: ee41 1fbd 539e 2c3d 4051 4a3c ed36 52bc
000001d0: 7874 3f3d 8560 b93c 310a 4aba 9173 493c
000001e0: dc81 49bc 2973 49bc 0ddf 05bd ba04 d9ba
000001f0: 72cc 40bd 4bca 1cbc 65c7 47bd 8091 f23c
00000200: cd18 583b e544 a6bc 41b0 3cbd 816b e0bc
00000210: 4204 243d 3e06 e1bc e7ae 4a3d 8157 e73c
00000220: 9fe4 443d 654c 1bbd e3af 693c c120 2bbd
00000230: bd73 933c 1c62 703b cf86 38bd c887 8c3c
00000240: 5d9c 8b3b 55a4 043a c357 4c3d 593a 2c3d
00000250: d014 dcbc ac98 24bd 46a0 923c 4a92 823c
00000260: 43d4 c6bc e533 323d ccbe 64bc 8c62 6d3c
00000270: d480 1e3c 4037 53ba 00db af39 93a1 d6bc
00000280: e325 163d e681 e23c 322e 9a3c 9d09 e3bc
00000290: d037 f9bc 1a40 823c 9aef 45bd 7310 2fbd
000002a0: f3aa 43bd 108c 0abd babc e63c f8f5 2cbc
000002b0: 2073 8fbc 2c7f 4abd 0450 103d 0f30 043c
000002c0: 7996 293d 14a7 3ebd 26d9 f83c baa1 c23c
000002d0: 3e41 2ebd 1138 0b3d da86 21bd 8812 21bd
000002e0: b1e7 dd3c 3bf1 bcbc aa99 1f3d 81d4 293d
000002f0: 9700 da3c 7bd7 9fbb 7fde cd3c 36ba c3bc
00000300: 376a c7bc f00c 383b 5277 31bd 0adc 443d
00000310: 0a7b 193d 8f47 4cbd fcb9 85bc 5b0d b0bc
00000320: 8d6e bdbc 77b8 32bd e812 4bbd 4dac e7bc
00000330: b6cd 05bd c899 6bbc 0c4b 80bc 4f75 1d3d
00000340: 0c2d 7a3c e05c 23bd f722 b7bc 63cd 3b3d
00000350: 4071 ffbb 8203 3fbd 8221 823c b305 dcbc
00000360: c7e9 f7bc 45bf 17bd f593 30bd 00ba 9fb8
00000370: 5e6d e13c 509c d93c 27e5 933c e18f 483d
00000380: 434a 783c 77cd 29bb a156 5c3a 6093 043b
00000390: 9a3d 95bc 7e3d 433d 511c e93b df5a 433c
000003a0: 508b 663b 507d d1bb 00b2 cfb9 cf45 ed3c
000003b0: 580e f73c c28c 9c3c 9dbd 293d 7301 093d
000003c0: 6505 15bd 1758 40bd 81ae 443c 01b5 27bd
000003d0: 1b5b 163d 1b1f b6bc 86f6 febc 80cd dfb9
000003e0: 7580 07bc 968a 3ebd 7f64 203d 7a45 e13c
000003f0: 9653 fb3c e8d3 a43c 2df7 05bd 59cd 04bd
-0.013703381 -0.028391141 -0.046166636 -0.013013361 0.040273562 0.005343473 -0.01645035 -0.035886325
0.027339485 0.013891383 -0.011424365 -0.03971145 -0.044176053 -0.015693149 -0.026751613 -0.03144019
-0.04791357 -0.01728529 0.01160461 0.040790956 -0.022330225 -0.028047556 -0.003704426 -0.008760943
0.0039434806 -0.048047777 0.035388157 0.036149 0.026395235 0.017831435 -0.02907512 -0.03762091
-0.0011245497 -0.042712685 0.005302857 -0.013862438 0.016805118 -0.046722006 -0.012714691 -0.0021806583
0.0021514595 -0.0376177 0.013433695 -0.031316027 -0.008555947 -0.048556183 -0.030367391 0.031820085
0.019537285 0.0037389405 0.04126097 0.039271675 -0.026921624 0.048287384 0.04185425 -0.004539404
0.03928864 0.023823196 0.006950537 -0.022168145 -0.02815868 -0.0067328257 0.010543867 0.036725745
-0.018872967 -0.023734013 -0.034517523 0.0023084567 -0.0451132 -0.022369945 0.044151735 -0.04418574
-0.033009548 -0.014616814 -0.022097608 -0.017662507 -0.025652127 0.034698356 0.027280005 -0.023738202
0.018798051 0.020343974 -0.0483858 0.0025590265 -0.016469907 0.036348272 -0.02000806 0.039901488
-0.03221169 0.019777484 0.025908904 0.036663197 -0.023421457 0.006192936 0.0113761155 -0.0035198734
0.012481771 -0.047839936 -0.04601055 -0.04432235 0.00669145 -0.02403472 -0.04518702 -0.049242828
0.013384909 -0.0028853882 0.047307257 -0.023974253 0.0032581014 -0.023475328 -0.0068615517 0.0005706793
-0.038881235 0.042143177 0.012348473 -0.012830478 0.046741933 0.022629032 -0.0007707207 0.01229562
-0.012299027 -0.012295523 -0.03268342 -0.0016557195 -0.047069974 -0.009569715 -0.04877414 0.029610395
0.0032973767 -0.020296523 -0.046066526 -0.027395012 0.040043123 -0.027468797 0.049483206 0.028239967
0.048069593 -0.037914652 0.014263126 -0.041779283 0.017999524 0.0036679571 -0.04505044 0.01715459
0.0042605833 0.0005059888 0.049888384 0.042047832 -0.026865393 -0.04018466 0.01789869 0.015938897
-0.024271136 0.04350652 -0.013961505 0.014488827 0.00967427 -0.0008057244 0.0003354177 -0.026200091
0.036657225 0.027649831 0.018820856 -0.027714545 -0.030422121 0.015899707 -0.048324205 -0.042740297
-0.04777045 -0.03382498 0.028166164 -0.01055669 -0.01751095 -0.049437687 0.03523256 0.008068099
0.041403268 -0.046546057 0.030376982 0.023758758 -0.04254269 0.033989016 -0.039435245 -0.039324313
0.027088018 -0.023064246 0.038964905 0.041462425 0.02661161 -0.004877982 0.025130508 -0.023892503
-0.02434264 0.0028083883 -0.043326683 0.048061408 0.037470855 -0.04987293 -0.016324036 -0.021490743
-0.023124004 -0.04363295 -0.049578577 -0.028280402 -0.032666884 -0.014379926 -0.015660785 0.038441952
0.015269529 -0.039883494 -0.02235554 0.04585017 -0.007795483 -0.046634205 0.015885118 -0.026858186
-0.03026284 -0.037047643 -0.043109853 -7.616356e-05 0.02751797 0.026563793 0.018053604 0.04896534
0.015154424 -0.002590982 0.00084052427 0.0020229444 -0.01821785 0.047666065 0.0071139713 0.011923521
0.0035178252 -0.0063931122 -0.00039614737 0.028963951 0.030158207 0.019110087 0.041440595 0.033448648
-0.036382098 -0.04695901 0.012004496 -0.040944103 0.03670798 -0.02223163 -0.03112341 -0.00042686984
-0.008270373 -0.046518885 0.03915834 0.02749895 0.030679505 0.020120576 -0.03270643 -0.032422397

fc1.bias f4 [120]
00000000: 435a e93c 1c45 7e3c b58c 3fbc 15eb 95bc
00000010: 1db8 093d 65c9 2bbd ab82 00bd dc4c 8bbc
00000020: 8db7 963b 4d61 eebc 7876 183c f6f5 233a
00000030: d85a 0ebd 609e 523c d678 bc3c cd36 aebc
00000040: b812 73bc 1876 913b 3db5 3a3c fcfe 02bd
00000050: 81a4 40bd e074 cebc fc3e 20bd 5a98 413c
00000060: b6e0 2bbd 8f18 a93c d005 c1bb 3ac2 b8bc
00000070: ec45 b0bc d8e0 343c 2c0d 34bc 0cfe 0abd
00000080: 0f26 4bbd e32e 16bd 2c7a 88bc 5612 243d
00000090: 4ef6 9a3c 1fbe abbc adfe 1e3d 1d01 063d
000000a0: 764e e73a 266c cdbb bc18 a3bc 256f 0c3d
000000b0: 0bf1 5fbc e319 24bd 6d58 393d 9e9a b0bc
000000c0: b023 9ebb 5092 49bd f373 15bd f99c 4b3d
000000d0: 6ca2 b23c 3f56 bc3c 12ef 163d 5e2a afbc
000000e0: 8ae0 80bc e7d8 873c 5cf5 bfbb 3d6b b0ba
000000f0: 6968 053d 6aa8 ba3c 0ff9 10bb 8564 2c3d
00000100: 108c dfbc 25da d8bc 1d67 08bd d355 0f3b
00000110: 5e5d 9c3c 6871 23bd 1a23 38bd 1282 123d
00000120: bcdb 993b 82c5 ccbc 12d8 1f3d 486d 09bd
00000130: 1f84 3d3d 2632 24bd 2f01 53bc e126 d43c
00000140: 93b1 44bd a85c ebbc c97c 353d 0779 39bd
00000150: d7c6 4abd 0cd8 64bc 70b7 a93c 4664 dbbc
00000160: 7d29 143d e1e6 b3bc 918b debb 3e63 093d
00000170: a7ba 223d cf21 3bbd c326 44bd 24a9 acbc
00000180: 6245 0a3c 9bf6 343d 7b00 07bc 4779 b4bc
00000190: 00b7 febc 2cef d33a cef6 16bd 0f89 29bd
000001a0: 2743 2dbd 5626 21bd 02e5 13bc a6d8 84bc
000001b0: e34b 41bd 58c7 2b3d 43c6 7dbb 8fac 30bd
000001c0: 250b b4bc 8b53 c53c db2f f5bc 8523 0a3d
000001d0: 7819 58bb aa4a 92bc 80fe 1dbd 82b8 bf3c
0.028485423 0.015519407 -0.011691262 -0.018300572 0.03362285 -0.04194011 -0.031374615 -0.017004423
0.0045995177 -0.029099131 0.009305589 0.00062546076 -0.034754604 0.012855142 0.023006838 -0.021266365
-0.014836006 0.0044391267 0.01139575 -0.031981453 -0.047031883 -0.025202215 -0.039122567 0.011816109
-0.041962348 0.020641593 -0.0058905855 -0.022553552 -0.021517716 0.011039935 -0.010989469 -0.033933684
-0.049596842 -0.03666581 -0.016659819 0.04005655 0.018916275 -0.02096468 0.038817097 0.032715905
0.0017647285 -0.006268996 -0.019909255 0.034285683 -0.013668309 -0.04006375 0.045250345 -0.021558102
-0.0048260316 -0.0492118 -0.03648753 0.049710248 0.021805964 0.022990344 0.03684909 -0.021382507
-0.015732069 0.01658292 -0.0058581065 -0.0013459694 0.032570276 0.022785384 -0.0022121107 0.04208805
-0.027288467 -0.026471207 -0.03330146 0.0021871224 0.01908749 -0.039903075 -0.04495535 0.035768576
0.004695384 -0.024996523 0.03902442 -0.033551484 0.04626858 -0.040086888 -0.0128787 0.025897445
-0.04802091 -0.028730705 0.044308458 -0.045281436 -0.049506035 -0.013967525 0.020717353 -0.026781213
0.03617238 -0.021960678 -0.00679154 0.03354191 0.039728787 -0.04568654 -0.04788853 -0.021076746
0.008439394 0.044180494 -0.008239861 -0.022030486 -0.03109312 0.0016169301 -0.036856465 -0.041390475
-0.04230037 -0.0393432 -0.009026768 -0.016216587 -0.04719151 0.041938156 -0.003872291 -0.043133315
-0.02197797 0.024087688 -0.029930046 0.03372528 -0.0032974165 -0.017857868 -0.03857279 0.02340341

fc2.weight f4 [84, 120]
00000000: 93d5 a73d 9efe 36bd f792 8cbd 1e4d 98bd
00000010: d2f1 bfbc aedb 093d 79f1 243d 3a74 41bd
00000020: 1e4f 86bd dcd0 783d 8898 023d 8d76 fabc
00000030: 8103 b93d 65ab 71bb 34a3 12bd 9180 933d
00000040: fc20 c2bc 0042 9b3a 37dd 8d3d 3007 423d
00000050: dc5c 2fbd cf77 993a ab08 f7bc 5569 1e3d
00000060: 2125 59bd bdef 9a3d 0837 b13c 767e 5d3d
00000070: 1ac8 82bd 2080 9fbd f842 8cbd b24c 383d
00000080: 6aa9 36bd c47d 443d 77ab 523b 1074 a93c
00000090: 94d5 a03c 6ec8 143d 9491 bebc 3449 0dbc
000000a0: ef3c 99bd f0cf 863d a29c 943c 4316 30bd
000000b0: 3ce8 aa3d d6cc a9bd cfb6 143d aae1 65bc
000000c0: 6f0f b3bd 4065 873d c4d0 a33d 904d f03b
000000d0: 4c3b b7bd 303a 4b3c bf67 6b3d b0db 43bc
000000e0: c3c7 363d a6c0 9d3d fb99 25bd 3d4f 8bbd
000000f0: c0b2 673c b2bb ba3d 53b5 783d 6e45 8d3d
00000100: 4879 3ebc 07b0 7fbd d1ff 243b 3d3e 293d
00000110: f615 75bd 968d a13d 035c 363d 56b3 62bd
00000120: 007d 42bd e9bb 943d 821f c73c 6329 28bc
00000130: 7e9b 4bbd 7771 28bd 60b8 01bc 8f01 92bd
00000140: 805f 673c 5d38 a8bd cc79 8fbd d52e d33c
00000150: 37f1 e83c ad71 9a3c 2c63 aebd de14 3dbc
00000160: 6a78 b53d fc0d 91bd b3de 063d ecc0 bfbb
00000170: 7912 343d 1353 513d 3837 443c 292d 893d
00000180: 7cbc 893d e8b0 b9bd c607 153d d899 9b3d
00000190: c437 a93d a816 a53c 7fd0 263c 220f a8bd
000001a0: 8f96 45bd 9ba5 6dbd 0ef7 dd3c c919 a9bc
000001b0: 3267 1a3c ffac 8cbd eea9 a93d 500d 69bc
000001c0: 5004 3fbd 77ff a03d 6330 02bd fe5e e8bb
000001d0: 40de 303d b16a 5ebd c62f 61bd f676 943d
000001e0: 9844 b0bc 0046 5fb9 2037 a23d 725d 8ebd
000001f0: c0b2 82bb 30f5 8c3d 9079 8cbd 48cf 34bd
00000200: 9475 203d 7ed0 8a3d 104b 1a3d 7d9a 8cbd
00000210: bc18 81bc 5ce7 a9bd f1d4 a8bd 6099 c43b
00000220: 242c 413d 80da 263a 085e 48bc d0b6 ff3b
00000230: 876e babd 50f7 693d dcc7 103d 9e88 b2bd
00000240: 917e 83bd 5886 94bd 6018 e0bc ac89 afbc
00000250: d6ee 9bbd 0872 513d 20bc e5bc 803e 1fbb
00000260: 208c 26bb d30a 44bd da15 7ebd d351 76bd
00000270: 40ae 683c b4db ab3d a033 213d a49e 9b3c
00000280: c8f8 abbc 80ce f4ba 12f3 ad3d 98d0 98bd
00000290: ec7c 8abd 4ce2 693d 2cb3 813c ae16 76bd
000002a0: d049 dc3c 1e5d a3bd ccec 84bd a429 323d
000002b0: 3c2a 90bd e8b4 6e3d f8d9 073c e66b 843d
000002c0: 594b 38bd 0018 14bc 2481 b8bd a053 0a3d
000002d0: 18fc 31bc 1885 a83d 8807 0fbc b0af d6bc
000002e0: 308b 69bc 4014 863a 405d b83c bc52 953d
000002f0: 1607 70bd 7802 8abd 6482 543d 68b0 b13d
00000300: ff75 8abd 1a52 a4bd 2a65 55bd 604c c43c
00000310: 4674 a03d 6e67 70bd 48fb c43c 80df 093d
00000320: dc7d 843d 20bc 91bd 805b 533a f42f 8d3d
00000330: 0937 8fbd 60ff fbbc e085 373c 6041 fabb
00000340: b498 823d c045 91ba 9dd5 7ebd 5083 9e3b
00000350: f012 193d a6ca b73d 1efd aabd 3d90 19bd
00000360: e02f 943d c00a 91bd a0dd 4e3d d8cd 253c
00000370: a37d 97bd 9a8d 8a3d 68f2 60bd 5b8f 46bd
00000380: 6715 b6bd 6446 933d 0cf3 7dbd 9d0e 36bd
00000390: b213 813d 5c91 983c 98a3 b1bc 0443 a13c
000003a0: 2824 c8bc 6410 59bd c09d 4ebc 2894 3dbc
000003b0: cda5 86bd 58af 983d ac88 d23c 4a49 b73d
000003c0: 664e 8ebd 2bd9 21bd 7b80 d7bc 1996 af3d
000003d0: f7bc 373d aee1 a0bd 2fde 88bc 6a75 b7bd
000003e0: ca6a 443d b811 683c 564a a63d 143d 5fbd
000003f0: 6a23 b53d a782 18bd 8934 4cbc ded4 acbc
0.08195033 -0.044676416 -0.06863969 -0.07436584 -0.023430739 0.03365677 0.04026935 -0.047229983
-0.06558059 0.06074606 0.031883746 -0.030574108 0.090338714 -0.003687584 -0.035800174 0.072022565
-0.023697369 0.0011845231 0.06926959 0.047370136 -0.042813167 0.0011708679 -0.0301555 0.03867467
-0.053013925 0.07565258 0.021632686 0.05407568 -0.063858226 -0.0778811 -0.06848711 0.044995017
-0.04459516 0.047971502 0.0032145658 0.020685226 0.019633092 0.036323957 -0.023262776 -0.00862341
-0.07482325 0.0658263 0.018141095 -0.04298998 0.083450764 -0.082910225 0.036307152 -0.014030853
-0.08743178 0.06611109 0.07998803 0.007333465 -0.08946857 0.01240401 0.057471987 -0.011954233
0.0446241 0.077027604 -0.04043005 -0.06802223 0.014141738 0.09117831 0.0607198 0.06898008
-0.011625595 -0.062423732 0.0025176893 0.04131912 -0.059835397 0.078883335 0.044521343 -0.05534681
-0.04748249 0.072624035 0.024307016 -0.010263774 -0.049708836 -0.041123834 -0.007917494 -0.071292035
0.01412189 -0.082138754 -0.07005653 0.025779167 0.028435333 0.018853033 -0.08515009 -0.01154062
0.08860858 -0.070827454 0.032927226 -0.0058518555 0.04396293 0.051104616 0.011976056 0.06698067
0.06725404 -0.09066945 0.036384366 0.07597703 0.082625896 0.020152405 0.010181545 -0.08206011
-0.048239287 -0.05801926 0.027095344 -0.020642178 0.009424018 -0.06868934 0.08284365 -0.014224365
-0.046634972 0.07861226 -0.031784426 -0.007091402 0.043180704 -0.054300968 -0.0549772 0.072492525
-0.021517083 -0.00021293014 0.079206705 -0.06951417 -0.003988594 0.06882703 -0.06859124 -0.04414299
0.03917463 0.06778048 0.03766924 -0.06865404 -0.015758865 -0.082960814 -0.0824374 0.005999729
0.047161236 0.00063649565 -0.01222945 0.0078037754 -0.09103113 0.05712062 0.03534685 -0.08717464
-0.06420625 -0.072521865 -0.027355373 -0.021427952 -0.07613914 0.05113414 -0.028043807 -0.0024298728
-0.002541311 -0.047861885 -0.062032558 -0.060136627 0.014201701 0.083915144 0.039355874 0.018996544
-0.020992652 -0.0018677264 0.084936276 -0.07461661 -0.06762108 0.05710058 0.015832506 -0.060080223
0.026890665 -0.07976745 -0.06490478 0.043496743 -0.070393056 0.058277994 0.008291714 0.064658925
-0.044993732 -0.009038925 -0.090090066 0.033771157 -0.0108633265 0.082285106 -0.008729823 -0.026206821
-0.014254376 0.0010229424 0.022505403 0.07291171 -0.058600508 -0.06738752 0.051882163 0.08676225
-0.06760787 -0.08023472 -0.05209843 0.0239622 0.078346774 -0.05869239 0.024045601 0.03366041
0.06469318 -0.0711596 0.0008062646 0.06893912 -0.06992919 -0.03076142 0.011201352 -0.007637188
0.06376782 -0.0011083409 -0.062215436 0.004837431 0.037371576 0.08974199 -0.083490595 -0.037491072
0.07235694 -0.070821285 0.050504327 0.010119878 -0.0739701 0.067652896 -0.054918677 -0.04847656
-0.08890801 0.0719116 -0.061999366 -0.04444753 0.06302585 0.018624 -0.021684453 0.019685276
-0.024431303 -0.052994147 -0.012610853 -0.011570968 -0.06574593 0.07455319 0.025699936 0.08949526
-0.06948547 -0.03951375 -0.026306381 0.08573551 0.044857945 -0.07855545 -0.016707508 -0.08957942
0.047953404 0.014164381 0.08119647 -0.054501608 0.08844645 -0.037233975 -0.012463697 -0.021097597

fc2.bias f4 [84]
00000000: d1d3 023d e32c 59bd e2e8 ed3c d3d9 a73b
00000010: 6474 5ebd e07f 6fbc f4a2 4a3d 5709 59bd
00000020: 56cb 873d 58c1 03bc 71e3 06bd b8f8 4cbc
00000030: b48f abbd 3024 34bc d2be 703d a4c3 753d
00000040: 3f65 acbd c466 57bd 5901 b43c dced b63d
00000050: 1935 893d 0fbb 073d 42f1 dc3b c0d4 223d
00000060: cc43 a2bd 6126 32bd b8a0 4d3d 38b5 5ebc
00000070: 60e9 6b3c 84aa 8b3d cc54 b03d 40e1 abbc
00000080: a863 8a3d cf47 ab3d c041 5f3b 6fdc 85bd
00000090: b22e debb 747d 933d cd1b 66bd 8d33 1d3d
000000a0: 4eb0 a9bd 5aa5 323d ef26 adbc e069 523d
000000b0: c096 8fbb 6966 61bc d29c 563d 2537 a43d
000000c0: 3cdd 773c 4ce8 9bbd 25a0 b0bd 166b 3dbd
000000d0: 489f aabd c33e 11bd 478a d23c f08f 8dbd
000000e0: f090 87bc 5a46 ab3d 9e07 81bd 64f7 9a3d
000000f0: cc94 a3bc 774c 8abd 6102 52bd d4b9 fabc
00000100: d4c5 87bd 4aa2 26bc 5313 b2bd 4677 2b3d
00000110: 9866 d0bc 67bf a6bd 528a ae3c 28a1 583d
00000120: 8937 92bd 0c6e febc 9bc3 0fbc 55fa ea3c
00000130: 7900 043b 1e9c 88bd 89e1 ed3c c4e7 8d3b
00000140: b3fc 8bbd 6f61 98bd 662f b13d afed e2bb
0.031940285 -0.053021323 0.029041711 0.005122402 -0.054310217 -0.01461789 0.04947181 -0.052987423
0.0663058 -0.008041702 -0.03293175 -0.012510471 -0.083770186 -0.010994956 0.05877573 0.06000103
-0.08417749 -0.05258824 0.021973299 0.08932087 0.06699581 0.033137377 0.0067426274 0.039753675
-0.079230875 -0.043493632 0.0502021 -0.013593011 0.014398903 0.06819633 0.08609924 -0.020981431
0.06757289 0.08363306 0.003406629 -0.06536185 -0.006780469 0.07201663 -0.056178857 0.03837924
-0.082855806 0.043614723 -0.021136729 0.0513705 -0.0043819845 -0.013757327 0.05239565 0.080183305
0.01512843 -0.076126665 -0.08624295 -0.046244703 -0.08331162 -0.035460245 0.025700701 -0.069122195
-0.016548604 0.08363028 -0.06300281 0.07566717 -0.019968413 -0.06752866 -0.0512718 -0.030606188
-0.066295296 -0.010170529 -0.08695092 0.041861795 -0.025439546 -0.08141976 0.02130619 0.052888066
-0.07139499 -0.031058334 -0.008774663 0.02868382 0.0020141883 -0.06670402 0.029038208 0.004330607
-0.06835308 -0.07440459 0.08651619 -0.0069253067

fc3.weight f4 [2, 84]
00000000: 872b 5bbd a254 87bd b4c1 64bd 7c1e afbd
00000010: 2fd4 c03d 1f8d 80bd 044a aa3d 287d 703d
00000020: 8c3f 873d 9726 923d 68a5 21bd 32d1 7bbd
00000030: d7f8 d13d 3079 acbd 2385 9abd f2e9 d73d
00000040: 3c0d dabc 20fc c6bc 9119 cebd dce1 753d
00000050: 9656 ddbc d0a3 a03d fe52 753d 87e2 993d
00000060: 16c7 61bd ac3b cebd 0264 cabc 06f7 3abd
00000070: 151b debd 5c63 8b3d a9b7 9a3c 4932 ce3d
00000080: 1665 d6bd 80e4 7c3d 153d 46bd 483e 2fbd
00000090: 51f6 743b 7821 e83c 664b 733d e263 a4bc
000000a0: b9a9 d73d 8c1d 39bd 6fa6 68bd d2ab 913d
000000b0: 1759 a5bd 7982 48bc 94ce d3bd c59a 9ebd
000000c0: 6af1 5c3d d00b 81bb 9e21 3c3d ca59 393d
000000d0: 177b debd 90d6 70bc 58ee 843d eb7a be3d
000000e0: bca9 953c 8042 4d3d 85c6 52bd 4572 85bc
000000f0: 9823 02bc a982 d7bd 4094 93bc 7417 ee3c
00000100: 404d ec3b 1851 12bd 4dc0 ca3d 310b 953d
00000110: 1c4d a7bc 975b c53d 22dc e8bc 92ab b0bd
00000120: 28c1 24bc 8201 7d3d 6796 3b3d 05d2 b4bd
00000130: 39fd b83c eed1 58bd 084e eb3c 9c32 003c
00000140: 5a91 6ebd 96ec b2bd c688 443d 139d 473b
00000150: e386 a5bc 6b9d b13d a53d a93d 4e11 2e3d
00000160: dde0 c5bd 58d7 88bd 2644 933d 78b7 af3d
00000170: 8b41 b63b 453f ba3d 80aa 08bc 8e71 123d
00000180: 80ca c13b 8eb0 653d ad42 99bd 9b10 2b3d
00000190: 20ec aebd 8421 b33c e8e7 0fbb d1bf 923d
000001a0: 55d3 b3bc 136f 36bd c75f 60bd 69ae 89bc
000001b0: c804 cfbd 0073 f3bb 1a8f 8ebd 451c 933d
000001c0: 874d debd b9ba 03bd 0bfd 093d 08d6 c3bc
000001d0: d6a3 b93b f855 06bc 8195 a23d 673b 69bd
000001e0: b845 2ebd e647 30bc bb3b dd3d c438 b8ba
000001f0: 5e08 0dbd c769 af3c bf65 2f3a a098 803d
00000200: 64c3 3bbd 9830 a6bd f291 bdbd 55d0 4fbd
00000210: 0caa 873d 1ca6 8ebc 2462 e33c 5058 cabc
00000220: 3f03 d83d a29f a5bd 2e9b 923d 5484 f23c
00000230: fee4 aebd 7791 9e3d aca6 b83c 3835 70bd
00000240: 9bae 86bd e6c2 263d 2b36 b93d e48d d5bd
00000250: 14ad 73bd 9439 133d d835 1a3c 0c9c 7fbb
00000260: fd2e a2bd 4041 e9bc 2b99 c8bd 64ed a1bd
00000270: 5619 39bd daab 5a3d baac 823d bb4c b23c
00000280: 3547 c7bc 4e15 3f3d 6b93 5abb 915c 76bd
00000290: 3805 cdbc e24a 613d c8be 9ebd d6e3 1f3d
-0.053508308 -0.06607939 -0.055848792 -0.08550736 0.09415471 -0.06276917 0.083148986 0.05871311
0.066039175 0.07136267 -0.039464384 -0.0614788 0.102525406 -0.08421552 -0.07544925 0.105426684
-0.026617639 -0.024290144 -0.1006347 0.06002985 -0.027018826 0.07843745 0.0598936 0.0751391
-0.055121504 -0.10069975 -0.02470589 -0.045645736 -0.10845009 0.06806061 0.018886404 0.10068185
-0.10468499 0.061741352 -0.048398096 -0.042784005 0.0037378261 0.028336272 0.059398077 -0.02006716
0.10530419 -0.045194194 -0.05679935 0.0711285 -0.08073633 -0.012238138 -0.10342136 -0.07744364
0.053941168 -0.0039381757 0.045930497 0.045251645 -0.10863321 -0.014699593 0.06490773 0.093007885
0.018269412 0.050112247 -0.051458854 -0.01628984 -0.0079430565 -0.10522968 -0.018015027 0.029063918
0.0072113574 -0.03572187 0.0989996 0.07277525 -0.02042251 0.0963661 -0.02842528 -0.086264744
-0.010055818 0.061769016 0.04579773 -0.088291205 0.022581683 -0.05293458 0.028723732 0.007824566
-0.058244087 -0.087365314 0.047982 0.0030458614 -0.02020592 0.08672603 0.08263711 0.04249697
-0.0966203 -0.066816986 0.07190733 0.08579916 0.0055620125 0.09094099 -0.008341432 0.035752825
0.0059140325 0.05607658 -0.074834205 0.041763883 -0.08541131 0.021866567 -0.0021958295 0.07165492
-0.021951357 -0.044539522 -0.05477884 -0.016806798 -0.10108334 -0.0074294806 -0.06960888 0.07183126
-0.10854631 -0.032160494 0.033688586 -0.023905769 0.0056652827 -0.0081992075 0.07938672 -0.056941416
-0.042546958 -0.010759329 0.10802408 -0.0014055003 -0.034431808 0.021412743 0.00066908816 0.06279111
-0.045840636 -0.08114737 -0.092563525 -0.05073579 0.06624231 -0.017413191 0.027756758 -0.024700314
0.10547494 -0.08087088 0.071585044 0.029604115 -0.085397705 0.07742589 0.022540413 -0.058644503
-0.06576272 0.040713213 0.09043535 -0.10427454 -0.059491232 0.035943583 0.009412251 -0.0039002923
-0.079191186 -0.028473496 -0.097948395 -0.07906607 -0.045190178 0.053386547 0.06380601 0.021765104
-0.024325946 0.046651177 -0.0033352028 -0.060146872 -0.025026903 0.055003054 -0.077512324 0.03903564

fc3.bias f4 [2]
00000000: 5a0b d53d 5a81 07bd
0.10402556 -0.033082344
